…
            self.fc2 = nn.Linear(80, 3)

        def forward(self, x):
            x = self.pool(F.relu(self.conv1(x)))
            x = self.pool(F.relu(self.conv2(x)))
            x = torch.flatten(x, 1)

            x = F.relu(self.fc1(x))
            x = self.fc2(x)
            return x


    cnn = CNN()

    summary(model=cnn, input_size=(3, img_size, img_size), batch_size=batch_size) 

    ----------------------------------------------------------------
            Layer (type)               Output Shape         Param #
    ================================================================
                Conv2d-1            [64, 6, 60, 60]             456
             MaxPool2d-2            [64, 6, 30, 30]               0
                Conv2d-3           [64, 16, 26, 26]           2,416
             MaxPool2d-4           [64, 16, 13, 13]               0
                Linear-5                   [64, 80]         216,400
                Linear-6                    [64, 3]             243
    ================================================================
    Total params: 219,515
    Trainable params: 219,515
    Non-trainable params: 0
    ----------------------------------------------------------------
    Input size (MB): 3.00
    Forward/backward pass size (MB): 19.83
    Params size (MB): 0.84
    Estimated Total Size (MB): 23.66
    ----------------------------------------------------------------
…
            x = self.maxpool(F.relu(self.conv2(x)))
            x = self.dropout(x)
            
            x = torch.flatten(x, 1) 
            x = F.relu(self.fc1(x))
            x = F.relu(self.fc2(x))
            x = self.fc3(x)
            return x

    tuned_cnn = Tuned_CNN()

    summary(model=Tuned_CNN(), input_size=(3, img_size, img_size), batch_size=batch_size) 

    ----------------------------------------------------------------
            Layer (type)               Output Shape         Param #
    ================================================================
                Conv2d-1            [64, 6, 60, 60]             456
             MaxPool2d-2            [64, 6, 29, 29]               0
           BatchNorm2d-3            [64, 6, 29, 29]               0
                Conv2d-4            [64, 6, 25, 25]             906
             MaxPool2d-5            [64, 6, 12, 12]               0
           BatchNorm2d-6            [64, 6, 12, 12]               0
                Conv2d-7             [64, 16, 8, 8]           2,416
             MaxPool2d-8             [64, 16, 3, 3]               0
               Dropout-9             [64, 16, 3, 3]               0
               Linear-10                  [64, 120]          17,400
               Linear-11                   [64, 84]          10,164
               Linear-12                    [64, 3]             255
    ================================================================
    Total params: 31,597
    Trainable params: 31,597
    Non-trainable params: 0
    ----------------------------------------------------------------
    Input size (MB): 3.00
    Forward/backward pass size (MB): 18.89
    Params size (MB): 0.12
    Estimated Total Size (MB): 22.01
    ----------------------------------------------------------------
…
